Part17/model_weights.pth (torch, 222535 bytes, 6 tensors)

squential.0.weight f4 [64, 784]
000000 7a 59 dd 3c 30 ca 42 bc 5c 3e 2d bc 4f 12 da bb
       0.027020205 -0.011889026 -0.01057395 -0.0066550146
000010 ac 21 cb 3c 4b 7f 3c 3a 64 c4 d6 bb e4 b7 f6 3c
       0.02479633 0.0007190599 -0.0065541733 0.030116983
000020 6b 3a fa 3c f2 a4 0b bd 6e 0b 35 bc fc 25 ab 3c
       0.030545434 -0.03409285 -0.011050088 0.020892136
000030 ff fb 8a bc 68 86 02 3d df 82 4b 3c 06 b5 2d bc
       -0.016965864 0.03186646 0.012421339 -0.010602241
000040 d8 11 26 3c e2 f1 a3 bc 05 82 0b bc 30 fe 5f 3c
       0.01013609 -0.0200128 -0.008514886 0.013671443
000050 b3 c5 f9 bc c3 f4 84 3b 99 6a 06 bd 82 b1 9a 3a
       -0.030489778 0.004057498 -0.032816503 0.0011802169
000060 0e b4 99 3a c5 46 ca 3c 44 25 89 bc 09 ef 58 bc
       0.0011726634 0.024691949 -0.016741402 -0.013240584
000070 e2 5b 57 3b 41 9b d0 bc 62 67 93 3c 1c 84 10 bd
       0.0032861163 -0.025464656 0.017993633 -0.03528224
000080 5b a4 b3 bc 00 08 09 3d 55 88 49 3c ea 03 b4 3c
       -0.021928957 0.033454895 0.0123005705 0.021974523
000090 72 3e fc bb f0 c5 d5 3c 82 d6 de 3c a9 30 f1 bc
       -0.0076978737 0.02609536 0.027201895 -0.029442148
0000a0 be 18 0a bd 42 40 fc bc 5e a5 0f bc 04 3b e8 3b
       -0.033715002 -0.03079236 -0.008767454 0.0070871133
0000b0 cc 9b 82 bc d0 6e f9 bc 86 e4 77 3c 35 65 2d 3c
       -0.01594343 -0.030448347 0.015130168 0.010583212
0000c0 19 da 0b 3d ff 50 00 bd be c5 bc bb 04 87 45 3c
       0.03414354 -0.031327244 -0.0057608774 0.012056116
0000d0 3a 89 9a bc 44 21 92 3c 48 df 54 3c fb b0 fb bc
       -0.018864263 0.017838128 0.0129926875 -0.03072404
0000e0 7d 52 ed 3c f9 3d be 3c 2f a8 c3 bc 33 68 c0 bc
       0.028969998 0.02322291 -0.023883907 -0.023487186
0000f0 04 1f 84 bc 81 d6 59 3b 5a 78 8e bc e8 96 d8 3c
       -0.01612807 0.0033239427 -0.017391372 0.026439145
000100 b0 47 6e ba e1 0e 77 bc 51 57 c3 3c 79 ba 0f bc
       -0.0009089662 -0.015079231 0.023845347 -0.008772486
000110 f4 00 9d 3c de 78 12 bc be 50 b0 3c 97 d9 20 3a
       0.019165494 -0.00893995 0.021522876 0.0006135939
000120 a4 5d 0c 3c e7 fc b5 bc 8b 81 9c bb 01 ca be bc
       0.008567248 -0.02221532 -0.004776185 -0.023289682
000130 9c 8e 0a 3d 42 53 b9 bc f6 3d ec bc 3a c0 de 3c
       0.03382741 -0.022622708 -0.028838139 0.02719127
000140 5e 5e 0e bd db 24 d6 bc 4a 43 c4 bb 0e ee 1a bc
       -0.034757964 -0.026140621 -0.005989467 -0.009456171
000150 ac e2 40 bc dc a8 ca 3c c6 6b aa bc 68 34 1d bb
       -0.011772793 0.024738722 -0.020803344 -0.0023987535
000160 4d cf 08 bd ea 13 ef bc 9a 4f 54 3b 10 69 8b 3b
       -0.033400822 -0.0291843 0.003239608 0.004254468
000170 05 94 a4 3a 26 ef da bc f6 b1 60 bc 3f 11 7b 3c
       0.001255632 -0.026725363 -0.013714304 0.015323936
000180 c9 01 87 bc 25 a0 01 bd b2 dc 03 bd 9d 9d e1 3c
       -0.016480343 -0.031646866 -0.032192893 0.027540976
000190 c8 32 4c 3c 5f 93 1b bd 9e 69 80 bb d2 a6 fb bc
       0.012463279 -0.03798234 -0.0039188405 -0.030719195
0001a0 75 01 90 3c 8c f7 88 3c 5c 27 0a 3d d6 08 f9 bc
       0.01757882 0.016719602 0.033728942 -0.030399721
0001b0 8e 65 0f 3d 0d 71 75 3c 1c 8f ed 3b 4a 27 9f 3c
       0.03500896 0.014980567 0.007249726 0.019427914
0001c0 09 1b 7b bc 95 d5 e9 bc cb 7e 97 3c b9 4d a4 bc
       -0.01532627 -0.028544227 0.018493077 -0.020056592
0001d0 93 1c a9 3c 59 79 fe 3c e7 da 1b bd c6 85 c8 3b
       0.020643508 0.031063722 -0.03805056 0.0061194627
0001e0 e6 9e 6b bc b4 84 9f bc aa 44 ca 3c 8e d1 84 bc
       -0.014381146 -0.019472457 0.024690945 -0.016213205
0001f0 eb 37 d9 bc 4a e4 bd bb de 2f 84 bc 72 be d5 3c
       -0.026515922 -0.0057950364 -0.016136106 0.026091788
000200 a1 59 0a bd c1 31 83 3c cd 93 37 bc ac 6a 18 bd
       -0.033776883 0.016014935 -0.011204672 -0.037211105
000210 4f c3 a5 3c 9c 65 10 bd 0d 41 d7 bc a1 4e ad 3c
       0.020234732 -0.035253152 -0.026276136 0.021155657
000220 a1 e7 b2 bb 04 81 8f bc 3f 1b cd 3c ad 16 2e bc
       -0.005459741 -0.017517574 0.025037406 -0.0106255235
000230 b5 e4 03 3c c7 c6 40 bc 07 35 07 3d f7 df a9 bc
       0.0080501335 -0.011766142 0.033009555 -0.020736678
000240 1f 14 ff 3c 7c 56 51 3c 30 4d a7 3c 57 f1 dc bc
       0.031137524 0.012776967 0.020422548 -0.026970549
000250 9e 84 1d bd 18 0d e8 bc d1 df df bc 00 1a a8 bc
       -0.03845655 -0.028326556 -0.027328404 -0.02052021
000260 8a a6 a9 bc 88 85 80 bc cf 08 73 bc 5a 09 98 bc
       -0.020709295 -0.015688673 -0.014833643 -0.018559147
000270 be 53 13 bd 4c 09 c4 3c ef 72 51 3c 3a b5 a2 3c
       -0.035968535 0.023930214 0.01278375 0.019861806
000280 32 8d 52 3c ab 90 7e 3c e8 85 5d bb 51 01 6f 3c
       0.012851046 0.015537421 -0.0033801738 0.014587716
000290 52 0b c4 3c 3d d6 00 bd 48 8e 07 3d c3 d7 a1 bc
       0.02393118 -0.031454314 0.033094674 -0.019756204
0002a0 a1 4d ea 3b a3 b6 43 3c 77 12 41 bc 22 a6 b8 3c
       0.0071503674 0.011945399 -0.0117841875 0.022540156
0002b0 f0 a5 96 3c ee 9a 97 3c 56 3f 86 bb 0a ab f8 bb
       0.018389672 0.018506493 -0.0040969057 -0.007588749
0002c0 e3 50 6a bb 70 35 c9 3c 83 b4 05 bd 36 6a 12 bd
       -0.0035753779 0.024561614 -0.032642853 -0.035745822
0002d0 1d 24 cd 3c f1 49 84 3c a7 10 9e bc 31 b1 ff 3c
       0.025041634 0.01614854 -0.01929505 0.031212421
0002e0 e3 40 5a 3b aa a3 c9 bb dc 99 b1 bc 1b f8 99 3c
       0.0033302836 -0.0061535435 -0.021679811 0.018795064
0002f0 c3 02 01 bd 3a b6 46 bb f6 86 82 bc 96 3e 98 bc
       -0.031496774 -0.0030321018 -0.015933495 -0.01858453
000300 f2 80 d9 bb ce 38 9b 3c 72 b9 7e 3c 91 36 9b bc
       -0.006637686 0.018947985 0.015547143 -0.018946918
000310 3d 4f 60 3c df 2b f8 bc 5e 0e d3 bc 45 28 6b 3c
       0.013690767 -0.030294357 -0.025763687 0.014352863
000320 41 ae 23 bc 70 28 e7 3c 88 20 09 3b df b2 4d 3c
       -0.009990276 0.028217524 0.002092393 0.012554853
000330 80 76 44 3a b4 4c c1 3c bf f8 d2 3c 83 34 95 3c
       0.00074944645 0.023596145 0.025753377 0.018213516
000340 10 dc 1a 3a 7a 80 c4 3c 83 20 f6 3c 9a ab ee 3c
       0.00059074257 0.023987044 0.0300448 0.02913456
000350 d2 be ac 3c eb db 91 3b a3 b5 ec 3a 91 b6 a0 3c
       0.021087084 0.004451265 0.0018059503 0.019618304
000360 2d ad 92 3c 12 86 f0 3c 61 a2 48 bb ce 56 6f bb
       0.017904842 0.029360805 -0.0030614363 -0.0036520245
000370 f4 ef 0f bc 0f 68 2b bb 20 78 16 3d 07 7c da bc
       -0.008785237 -0.0026154553 0.036735654 -0.026670469
000380 f5 47 85 3a 0a 36 61 3c e9 ca c7 3c c3 62 00 3d
       0.001016854 0.013745794 0.024388747 0.031344187
000390 99 65 e1 bc 57 d4 06 3d 7b 06 ac bc 6a cc 16 bd
       -0.027514266 0.032917347 -0.020999184 -0.03681604
0003a0 b2 43 c4 3c 47 a3 9e 3c 27 d8 7b bc ef 9d 94 3c
       0.02395806 0.019364966 -0.015371359 0.018141715
0003b0 aa 75 8e 3c 22 41 d4 bc 63 66 6b bc 88 9d 90 ba
       0.017390091 -0.025909964 -0.014367673 -0.0011033276
0003c0 a5 2b c3 bc 0c 0e 13 3d d4 d0 07 bd 56 8d b7 bc
       -0.023824522 0.035902068 -0.03315814 -0.022406261
0003d0 fc 93 c9 3c ac d1 a0 bb b1 dd a4 3b af f5 6d 3c
       0.024606697 -0.0049078073 0.0050313105 0.014523908
0003e0 6e 50 a7 3c b1 cc c5 bc 9a 12 69 3c 07 7b f3 bc
       0.020424094 -0.024145456 0.014225626 -0.02972175
0003f0 57 58 a0 bc 1e 64 75 3b 50 94 cd 3c 09 5a 51 3c
       -0.019573374 0.0037443708 0.025095135 0.012777814

squential.0.bias f4 [64]
000000 b5 f6 8d 3c 0f 2d e4 bb 8a 87 69 3c 21 f2 01 3d
       0.017329553 -0.006963379 0.014253506 0.031725053
000010 ef e9 08 3d 9f cf d4 bc 35 19 68 bc b9 06 7d bc
       0.03342622 -0.025977908 -0.014166166 -0.015443497
000020 c8 7e cf 3c 46 dc 00 bd 46 e4 e7 bc db 3d 83 bc
       0.025329009 -0.03146007 -0.028307091 -0.016020706
000030 6d 6b b3 3b 9b 7a d5 bb c2 1f ee bb 71 84 bb bc
       0.0054754526 -0.00651486 -0.0072669694 -0.022890301
000040 6a 13 ab 39 0c 23 f1 3c c3 c5 c9 3c aa 29 ef ba
       0.00032630126 0.029435657 0.024630433 -0.001824667
000050 ab 1e 91 bc 7e 85 97 bc 05 52 9f bb 7b 74 05 bc
       -0.017714819 -0.018496271 -0.0048620724 -0.008145447
000060 60 98 6a bc 83 ad d3 3c c6 73 82 ba c9 0a af bb
       -0.014318556 0.025839573 -0.0009952716 -0.005341862
000070 24 d8 9b 3c 89 2b 02 3c 71 8a fc 3c 44 c6 0c 3d
       0.019023962 0.00794495 0.030827733 0.03436877
000080 d9 8b ed 3c 96 ca ae 3b ed ca c5 bc e1 cb 05 3d
       0.028997349 0.0053342087 -0.024144614 0.032665137
000090 2b 20 b4 bc 80 3c 85 ba 7d 1b f1 bc 0d 9d 3f bc
       -0.021987995 -0.0010165125 -0.029432053 -0.011695159
0000a0 01 3d c4 3a 6f 47 df 3c 3a 41 cd 3c b3 47 ff 3c
       0.0014971794 0.027255742 0.025055517 0.031162119
0000b0 63 23 a4 3c 10 ce e2 bc ab e9 d9 3c 79 e1 ea bc
       0.020036405 -0.027686149 0.02660068 -0.028671967
0000c0 9e 26 a2 3c a5 a4 06 bd 60 41 b9 3b ba b5 9c 3a
       0.019793805 -0.03287186 0.0056535453 0.0011956014
0000d0 a2 44 f9 3c 47 5c 6f bc ee 26 a5 3c 8d 72 95 bb
       0.030428234 -0.014609403 0.020160165 -0.0045607747
0000e0 8c a0 b2 3c 44 93 5f bb b6 5c e7 3c 77 f6 da bc
       0.02180507 -0.0034114877 0.02824245 -0.026728852
0000f0 04 56 bb bc bb a9 47 3d 4e a7 0f bd 46 35 12 3c
       -0.022868164 0.048745852 -0.035071664 0.008923834

squential.2.weight f4 [64, 64]
000000 21 2a 46 bd 2c 3b b7 3c b8 86 66 bd c6 8c 50 3d
       -0.04838002 0.022367083 -0.05628082 0.050915502
000010 db ed c3 bd 5e 08 a2 3d b1 c6 bb 3c e2 d2 7b bd
       -0.09566852 0.07911752 0.022921892 -0.06148041
000020 a2 31 00 3d f9 85 0b bc b1 ae aa 3d e0 fd d4 bd
       0.031297334 -0.008515828 0.08334101 -0.10399985
000030 da d6 ce bc 57 6c 80 bd 64 e0 42 bd 44 93 70 bd
       -0.025248934 -0.06270664 -0.047577277 -0.058734193
000040 6c b2 50 bd 18 c0 a4 3d 7c dc 5f bd d5 47 a0 3c
       -0.050951406 0.080444515 -0.05465363 0.019565502
000050 9d 47 a7 3c 49 ad b9 3d 98 8d 95 3d 38 82 26 bd
       0.02041989 0.09066255 0.073023975 -0.04065153
000060 28 0a a5 bd 89 5a ff bd 67 f8 91 3c b5 e4 3d bd
       -0.08058578 -0.1246844 0.017818643 -0.04636069
000070 81 d7 d2 bd d2 cc a3 3d 04 20 a9 bd c5 85 3e 3b
       -0.1029501 0.07998051 -0.082580596 0.0029071432
000080 a7 b8 1d bd bc 06 fc bd f0 b8 9a 3b 1a 65 f7 bc
       -0.038506176 -0.12305972 0.0047217533 -0.030199576
000090 9e 5e e7 bd 38 fc d4 bd 67 63 d8 3d 8b 35 ae bd
       -0.11297344 -0.103996694 0.105658345 -0.08506306
0000a0 68 fd 3b bd 08 0b d0 bd 82 af 4b bd 5a 9b 37 3c
       -0.045895964 -0.10158354 -0.049727924 0.011206472
0000b0 69 6e 05 3d e1 0f 95 3d a6 58 c3 3d 40 fd 71 bc
       0.032576 0.07278419 0.09538393 -0.014769852
0000c0 2f c5 4e bd 5c bd c8 3d 1e f1 d6 3c e4 1d b5 bd
       -0.050481018 0.098017424 0.02623802 -0.08843592
0000d0 1d a9 09 3d d9 be c7 3d 8a f7 8f 3d a1 19 89 bd
       0.033608545 0.09753198 0.07029636 -0.066943415
0000e0 5a c7 ab 3d af 07 a1 3d 6d d7 f1 3c 31 1c df 3d
       0.08387633 0.07862794 0.029521668 0.10894049
0000f0 ae f0 66 bd 2a 26 48 bd 33 2f ba bd 58 d4 d3 3d
       -0.056381874 -0.04886452 -0.09091034 0.10343236
000100 ed 9e ee 3d ee 55 49 bd 3d 0e de bd f5 c2 58 bd
       0.116514064 -0.049154215 -0.108425595 -0.0529203
000110 f0 c0 f5 bd b0 39 b7 3d 1a 55 ae bd 04 07 c9 bc
       -0.119996905 0.0894655 -0.085123256 -0.024539478
000120 f2 a9 d5 3d ee b7 b0 3d 9c 38 92 bd 4e 2f 50 bd
       0.10432805 0.08628832 -0.07139704 -0.050826363
000130 72 77 f0 3d 1c fd ab 3d 84 60 42 3c ba d0 1e bc
       0.117415324 0.08397886 0.011863831 -0.009693319
000140 99 bd f8 bd fc b3 e3 bd 2b 99 4c bd db 24 61 3d
       -0.12145538 -0.11118314 -0.04995076 0.05496679
000150 1e 21 1e 3d 43 3c be bd 4f 77 4c bd 0e 9e f5 ba
       0.0386058 -0.09288838 -0.04991847 -0.001873912
000160 d2 dc df 3d 9e 01 66 bd 6a 1f c9 bc 09 09 e0 bd
       0.1093079 -0.056153886 -0.024551112 -0.10939223
000170 b7 0b 82 bd eb dd 92 bd 24 5f 91 bd 5b e6 ca 3d
       -0.06349891 -0.07171234 -0.07098225 0.09907218
000180 07 d6 dc bb 41 ed 63 bd 77 f1 e2 3d 62 5a 03 3d
       -0.0067393812 -0.055646185 0.11081212 0.032068618
000190 40 29 e4 3d f9 ef 98 bd b8 fd 86 3c c5 e3 d3 bb
       0.1114068 -0.07467646 0.016478404 -0.006466361
0001a0 75 8c db bc de 05 1b bd 47 1a da 3d 17 b5 63 bd
       -0.026800374 -0.037847392 0.10649543 -0.055592623
0001b0 2a ca f5 bd 10 55 5d bb 99 4a ce bd 08 a7 20 3d
       -0.1200145 -0.0033772625 -0.10072822 0.039221793
0001c0 7a b2 0e bd 04 23 d8 3d e6 73 0c bd 41 85 b3 bc
       -0.034838177 0.10553554 -0.034290217 -0.021914126
0001d0 c0 c1 9f bc a2 cb 90 3d 73 41 8b bc 45 d8 59 3d
       -0.019501567 0.0707009 -0.016998982 0.053184766
0001e0 f1 7b d6 bc e1 86 11 bd 4e 26 07 bd a6 99 c7 3c
       -0.026182147 -0.03552902 -0.032995515 0.024365257
0001f0 a3 ca fe bd 9b 4f cd 3c f4 57 9d bd ae 9f 72 bc
       -0.12440994 0.025062373 -0.07682791 -0.014808578
000200 e1 4c df bd 4c 7d bb bd 5e fa ed 3d fc 42 d6 3d
       -0.10903335 -0.09154758 0.116200194 0.10461995
000210 1b a6 d4 bc e9 d4 c2 3c 79 a4 ba 3d c8 09 29 3c
       -0.025958112 0.023783164 0.09113402 0.010317273
000220 56 a9 89 3d b3 ab c0 3d c1 c3 c7 bd 8c 1d e4 3d
       0.067217514 0.09407749 -0.09754134 0.11138448
000230 15 eb 34 3d 29 d5 b0 bc bd 42 86 bd ba cf a1 bc
       0.044169504 -0.021586018 -0.06555698 -0.019752372
000240 75 7a e1 3d 72 fd 81 3d 07 62 da 3d cf 3f 75 3d
       0.11009685 0.06347169 0.106632285 0.059875306
000250 f0 93 62 3c 0e 40 cb bd b3 cb 6e bd 62 30 86 bc
       0.013829216 -0.09924327 -0.05829973 -0.016380493
000260 e1 22 3b 3d d6 ce cc bd 1a 61 5c bd ef 4a 49 3d
       0.04568756 -0.10000388 -0.05380354 0.049143728
000270 00 06 58 bd 12 89 26 3d 9a 1f 80 bd 97 e4 f6 bc
       -0.052740097 0.040658064 -0.062560275 -0.030138297
000280 4a 76 8c bd 11 ca c7 3d c3 c3 04 be 97 6d a4 3d
       -0.06858499 0.09755338 -0.12965302 0.08028715
000290 9e 5d f4 bc f8 e4 c8 3c d3 6d a7 39 e2 25 10 bd
       -0.029829796 0.024523243 0.00031934548 -0.035192378
0002a0 b1 f1 a7 3d 10 a6 ae 3d e6 b4 89 3d de e6 a7 bd
       0.08200396 0.08527768 0.06723957 -0.08198331
0002b0 93 bb 6f 3d a6 01 62 3d c4 88 1b 3d 14 2b dc 3d
       0.058528494 0.055177353 0.037972227 0.10750404
0002c0 54 d0 ad 3d 7f a4 b1 bd 9e ce bb 3d e6 8b d3 3d
       0.08487001 -0.08673953 0.091702685 0.10329418
0002d0 9a 34 d5 bc ed 3a 7b 3d 62 51 5c bc 46 3c 59 3c
       -0.026026059 0.061335493 -0.013447138 0.013258999
0002e0 27 96 ea bc b2 8b 65 3d 85 59 39 bd e9 dc 5b 3d
       -0.028636051 0.056041427 -0.045251388 0.053677473
0002f0 7a 19 81 3d 62 13 4d 3d 1a c2 9f 3d 30 87 67 3d
       0.063036874 0.050067313 0.07800694 0.05652541
000300 ac 14 82 3b 45 5d 1a bd 68 ac e2 bc cc c4 05 bd
       0.0039697494 -0.037686605 -0.0276701 -0.032658383
000310 2b 9e dd 3d 2c 62 ad 3d 4f d1 84 bd 02 07 88 bd
       0.10821184 0.084659904 -0.06485235 -0.06641962
000320 11 11 34 bd a8 94 5b 3d 50 75 f8 3d 8b 47 f7 3d
       -0.04396159 0.053608567 0.121317506 0.120741926
000330 8a 9f e5 3b 39 d2 89 3d e9 f4 06 bd 88 e1 de bc
       0.007007544 0.0672955 -0.03294841 -0.027207151
000340 f0 74 b7 bd 06 aa db bd 39 17 56 3d fd 67 95 3d
       -0.08957851 -0.10725789 0.05226824 0.07295225
000350 9d 54 a5 bd 35 96 91 bd aa 0e a8 bd 52 fb b4 3d
       -0.08072779 -0.07108728 -0.08205922 0.08836998
000360 9b 1b 76 3d f6 e4 9e 3d 0b e1 ef bd a2 5e 3a 3d
       0.06008492 0.077585146 -0.117128454 0.045500405
000370 9c 2f b8 bd 3d 1c f1 bd ed 79 1e 3c f0 7c c7 b9
       -0.08993456 -0.11772964 0.009672624 -0.00038049323
000380 00 8c 48 3d 21 c2 f4 3d 8b cc e1 3d ea ea 78 bd
       0.04896164 0.1195109 0.110253416 -0.060770907
000390 9d 67 d1 3d 91 f7 8a bd 6b 13 e9 3d 31 49 b9 3d
       0.10224841 -0.06785501 0.11380657 0.09047163
0003a0 50 d7 c1 3d 9a 9a 56 3c 56 42 89 3d 8d 69 de bd
       0.09464896 0.013098383 0.06702106 -0.10859976
0003b0 5a e4 3b bc 61 3b 8d bc a0 51 c4 bd 53 63 a5 bc
       -0.0114680175 -0.017240228 -0.09585881 -0.020188963
0003c0 fa 3b c7 3d 92 6b 37 bd cb 48 e7 bc 15 7e 9d 3d
       0.097282365 -0.04478032 -0.028232953 0.07690064
0003d0 b6 21 f3 3d c6 f2 e4 3c dd e3 e4 bd 03 f4 98 bd
       0.11871664 0.027947795 -0.11176274 -0.074684165
0003e0 2b 75 91 bd 4c 0c 01 bd 7a cd c6 3c a6 a0 3c bd
       -0.07102426 -0.031505868 0.0242679 -0.046051644
0003f0 8a 9e 68 bd 12 8e b1 3d 38 0d ac 3d 32 0f b1 3d
       -0.05679182 0.08669676 0.08400959 0.086454764

squential.2.bias f4 [64]
000000 af f4 c8 bd 98 60 a4 bc a8 fa a9 bd cc 60 99 bd
       -0.09812295 -0.02006559 -0.08299762 -0.07489166
000010 b3 b2 cb bd b8 ee 00 3d b1 f3 11 bd 09 2e f5 3d
       -0.099461935 0.03147766 -0.035632793 0.11971671
000020 ee ed 1a 3d 43 77 3d 3d 74 93 12 3d 78 a1 89 bd
       0.037824564 0.046256315 0.035785154 -0.06720251
000030 ff 2b b1 3d 04 c2 ce 3d ed 02 4f 3d 3e 2c 8d bc
       0.0865097 0.10095599 0.0505399 -0.01723301
000040 62 a0 ee bd 7e 78 ab bd c4 16 09 3e cc bc db 3b
       -0.11651684 -0.083725914 0.1338759 0.006705856
000050 1c 9b 44 3c d9 5a e9 bd a0 c6 4e bd 20 0a b3 3c
       0.011999872 -0.11394281 -0.050482392 0.021855414
000060 9f ee a9 3b a4 6a ae 3d 08 d4 a6 3d 19 d2 6f bd
       0.0051859166 0.08516434 0.081459105 -0.058549974
000070 c6 b0 a8 bd 56 6d dd bd 27 d0 0f bd a6 6d f4 bd
       -0.08236842 -0.1081187 -0.03511062 -0.11934976
000080 d9 a2 28 bd 72 d5 18 bd 55 8a e3 3d 1f 0f 55 bd
       -0.04117093 -0.037312932 0.11110369 -0.052016374
000090 ab 6e a8 bd 21 cb 11 3d a2 74 8a bd aa c7 a2 3d
       -0.08224233 0.03559411 -0.06760527 0.07948239
0000a0 92 9a 4b 3d 15 5b 04 3d 1a 9a a2 3d 4d dd c6 bc
       0.049707957 0.032313425 0.07939549 -0.024275446
0000b0 94 81 c2 bd 36 dd da bd 21 0c 0f bd 7c 36 80 3d
       -0.09497371 -0.10686724 -0.034923676 0.06260392
0000c0 14 6b c6 3d ff 44 6f bd c0 fa 95 3c 56 4b 69 bc
       0.09688392 -0.05841541 0.018308043 -0.014239153
0000d0 b2 2d 01 3e d3 57 d3 bd 23 2f 95 bd d2 b3 5c bd
       0.12615088 -0.103194855 -0.07284381 -0.053882428
0000e0 47 02 f0 3d 2b 4a ac bd 3e fb 8a 3d ef f6 d8 bc
       0.11719184 -0.08412584 0.06786202 -0.026484935
0000f0 22 34 a6 bc 1e 26 89 3d 0d 90 7c bd 23 e9 3b bd
       -0.02028853 0.066967234 -0.061660815 -0.045876633

squential.4.weight f4 [10, 64]
000000 29 b3 8b 3a 70 00 b5 3d 9c 61 d1 3d 5f da d9 3c
       0.0010658252 0.08837974 0.10223696 0.026593385
000010 07 b2 57 bc 17 2f cc bd cc b1 8f bc c7 38 75 3c
       -0.013165004 -0.09969919 -0.017540835 0.01496715
000020 65 27 e3 3d 0f 54 bb bd 69 7f ef 3d 25 8c 62 bd
       0.11091498 -0.09146892 0.116942234 -0.055309433
000030 df 22 dc 3c 9c 9f be bd 37 04 dd 3c a8 75 0c be
       0.026872097 -0.09307787 0.026979549 -0.13716757
000040 dc 5f 87 bd 3f 99 51 bd d1 0e da bd 73 75 72 3c
       -0.066100806 -0.051171537 -0.10647357 0.01479851
000050 de d9 c1 bd 93 3a c9 bd dc 73 a4 bd 02 9b c5 bd
       -0.09465383 -0.09825625 -0.08029911 -0.09648706
000060 ec 51 04 bb 63 f8 07 3d ad 59 ad bc 9a cc 06 3d
       -0.002019043 0.033195864 -0.021160925 0.032909967
000070 dc bc f4 bc dc 52 6d 3d d4 e5 dc bd 17 39 fc 3d
       -0.029875211 0.05794035 -0.10786024 0.123155765
000080 13 8f 85 bd fb 32 ab bd 12 fa 2d 3d 56 4a 42 bd
       -0.0652143 -0.08359333 0.042474814 -0.047434174
000090 9d 7e f0 bc 89 a5 38 3d 47 ae 55 3d 86 be 5c bc
       -0.029357249 0.04507974 0.052168157 -0.013473159
0000a0 5a 5d b1 bd f9 18 03 3c 2d fc 9d 3d 42 90 ff bd
       -0.086603835 0.008001559 0.07714114 -0.12478687
0000b0 b0 0e f6 bd b9 43 bf bc aa 07 71 bd 12 f3 26 3e
       -0.1201452 -0.023347722 -0.0588452 0.16303661
0000c0 10 b4 d4 bd de 15 77 bc b9 5d 5f bd fa 95 85 3d
       -0.10385907 -0.015080897 -0.05453274 0.065227464
0000d0 a6 4b 39 3d 8c 43 79 bd c3 74 f9 3d 21 b7 e5 bc
       0.04523816 -0.060855433 0.12180474 -0.028041424
0000e0 6b 7f 42 bd ba 9d 56 3d e8 ca 9f 3d 69 e1 8c bd
       -0.047484796 0.052396514 0.07802373 -0.06878931
0000f0 24 16 bf bd 3d 73 a4 3c da 64 db 3d d9 4c 81 3c
       -0.09330395 0.020074481 0.10712595 0.015783714
000100 9e 74 bf bd f5 a5 e5 3d 90 e4 96 3d 5a 74 57 3d
       -0.09348415 0.112132944 0.073678136 0.052601196
000110 71 fb 31 3c b1 0a 20 3d 4d 54 8c 3d 3b f7 9d 3d
       0.010863171 0.039072696 0.068520166 0.07713171
000120 2b 5a 38 be 0e 2d 31 3d 74 df e5 3d 1a 52 79 bd
       -0.18003146 0.043255858 0.11224261 -0.060869314
000130 24 ab cd 3c 18 10 0f be 5f 22 32 3e f1 3f fc 3d
       0.02510602 -0.13970983 0.17395924 0.12316883
000140 a0 97 f0 bd ee 3e cf bd 4d 4a 8f bd b2 fa 0a 3d
       -0.1174767 -0.10119425 -0.069965936 0.033930488
000150 11 f1 50 3d 25 a2 fe bd be 28 d7 bd 26 f6 59 bd
       0.05101115 -0.1243327 -0.10505818 -0.05321326
000160 38 b1 fd bd 8c 34 8b bc db a4 f4 3c e4 6e 92 bd
       -0.123873174 -0.01699283 0.029863765 -0.07150057
000170 b2 bf af bd f4 1e 7e 3b e9 84 c2 3d ea 9d d9 bd
       -0.08581485 0.0038775774 0.09498007 -0.10625823
000180 f1 5f ae 3d a1 a0 a6 3c d0 60 60 bd 5a 33 ae 3d
       0.08514393 0.020340266 -0.054779828 0.08505888
000190 c0 e7 f1 3c fd 35 b3 bd 05 3f a1 3d c7 7d 90 bd
       0.029529452 -0.08750532 0.07873348 -0.0705524
0001a0 80 62 13 bd 88 0b de 3d a1 77 ab 3d 06 96 77 bd
       -0.03598261 0.10842043 0.08372427 -0.060445808
0001b0 b0 57 1b 3d ad f6 fb 3c 56 05 f5 bd 76 f8 f7 3d
       0.037925422 0.030757273 -0.119639084 0.12107937
0001c0 a4 e2 09 be 94 6e 4d 3d e0 01 b2 3d 12 50 83 3d
       -0.13465363 0.050154284 0.08691764 0.064117566
0001d0 79 c4 f0 bd 2c a9 31 3d b2 7c 94 3d c5 47 f9 bc
       -0.11756224 0.043374225 0.07250346 -0.03042973
0001e0 a4 5e 91 3d cb 40 b6 3d d1 a3 a4 bd d2 01 59 bd
       0.070981294 0.08899077 -0.08039058 -0.05298025
0001f0 ce 59 c2 3d 54 c2 f9 3d 3a 20 ee 3d 2b 99 b1 bd
       0.09489785 0.12195268 0.116272405 -0.086717926
000200 91 f4 2b 3d a4 ce 2e bd 13 f6 b6 3d 0e 3a a4 3d
       0.041981284 -0.042677537 0.08933654 0.080188856
000210 fe e0 63 3d c3 a7 14 3e 7f 0b 13 bd 09 45 8b bd
       0.05563449 0.14517121 -0.035899635 -0.06800277
000220 d9 9d 8c 3d af b3 e3 bd b5 8e 2c bd 65 9a bb 3c
       0.068660446 -0.11118256 -0.042128284 0.02290077
000230 8f af 24 3d 94 13 07 3e b2 af ac 3d dd 05 4d 3d
       0.04020649 0.13191062 0.08431949 0.05005442
000240 63 18 56 bc 94 9f bc 3d 45 e6 e7 3c df fd 0a bd
       -0.013067338 0.092101246 0.028308043 -0.033933517
000250 46 a0 b4 3c 46 ed b7 3d b0 47 f2 3d bb 9b 08 bd
       0.02204908 0.08980803 0.118300796 -0.03335164
000260 ff d9 8a bd 49 12 f3 3d a5 9a 6d 3c 34 6f 3c 3d
       -0.06779861 0.11868722 0.014502202 0.04600449
000270 59 37 d8 bd 5a ba a8 3d c9 5b a9 bd 9f 55 4f bd
       -0.10557432 0.08238669 -0.0826946 -0.050618764
000280 8f f3 fd bd d8 de ca 3d 8e c9 5a 3d 3d d1 d2 3d
       -0.12399971 0.09905785 0.053414874 0.10293815
000290 61 f8 d5 bd 80 79 b6 bc 5f d4 3a 3d 06 fe 83 3d
       -0.10447765 -0.022274733 0.04561269 0.064449355
0002a0 20 84 06 3d ee 59 f1 3d d3 c0 b7 bd 76 b5 f2 3d
       0.032840848 0.11784731 -0.08972325 0.11851017
0002b0 2b ec ed 3c da bf a2 3d d8 19 b2 3d 53 1e dc bd
       0.029043278 0.07946749 0.086963356 -0.107479714
0002c0 5a 90 3a 3d 59 9d 26 3d 9a a1 09 be be 16 e5 3d
       0.04554782 0.040677402 -0.13440552 0.11185978
0002d0 23 39 42 3d 38 6e 98 bc ac 35 75 3d 49 a1 cc 3d
       0.04741777 -0.018607244 0.05986564 0.099917
0002e0 fc 77 2b 3b 49 bb 21 bd d7 79 4d bd c8 c6 d1 bd
       0.0026164046 -0.03948525 -0.050165024 -0.10242993
0002f0 08 92 39 3d d8 25 ac 3d fc e5 9f 3d e7 e2 80 3c
       0.045305282 0.084056556 0.07807538 0.015733195
000300 05 42 b6 3d 6d e3 96 3d 7d 4d 0d bd 73 a7 75 bd
       0.08899311 0.07367597 -0.034497727 -0.059974145
000310 3d 10 35 3d f6 14 ea bb e7 2f 5d bd 29 1f ae bd
       0.04420494 -0.007143612 -0.05400076 -0.08502037
000320 d3 69 06 be e4 f7 ce 3d a4 20 15 3d 90 ff 92 3d
       -0.13126306 0.10105875 0.03640808 0.07177651
000330 a8 54 d2 3d 9a 4e f9 3d 2f 0f 16 3e 35 79 48 bd
       0.10270053 0.12173195 0.1465423 -0.048943717
000340 d3 6b 86 3d ec b7 d8 bb 20 95 bb bd a5 b4 e7 bd
       0.065635346 -0.006613722 -0.09159303 -0.11313752
000350 ef 2b 50 bd e4 72 4f bc 95 23 b9 bd 76 86 c2 3d
       -0.05082315 -0.012661669 -0.0903999 0.09498303
000360 43 96 e9 bd 40 1f 9a bc 4f 71 f8 3d ee 90 41 bd
       -0.11405613 -0.01881373 0.12130987 -0.047257356
000370 9f 6e 06 bc e7 a0 9a bc e8 55 bc 3d 8e fc e3 3d
       -0.008205085 -0.018875552 0.09196073 0.11132155
000380 5f da 9d bd 83 91 5a bd 2f d1 d0 bd 7a 63 e3 bd
       -0.077076666 -0.053361427 -0.101961486 -0.11102958
000390 32 52 c2 bd 64 bc ae 3d 4f 8d a7 3d 89 ff cb 3c
       -0.09488334 0.085320264 0.08181249 0.024902122
0003a0 4b 70 cc bd 58 dc f9 bd 20 27 61 3d b5 bf c3 bd
       -0.09982356 -0.1220023 0.054968953 -0.095580496
0003b0 59 d8 a1 bb 73 48 a5 bd c4 eb bd 3d 13 57 ad 3d
       -0.0049391207 -0.08070459 0.09273484 0.08463874
0003c0 2f 40 86 bd c2 c0 81 bd 4b 76 ee 3d 15 6e 53 bd
       -0.06555211 -0.06335594 0.11643656 -0.051618654
0003d0 90 33 3c bd c0 82 51 bd 06 0a e8 bd 1f 7f ff bd
       -0.04594761 -0.051150084 -0.11330037 -0.12475418
0003e0 a5 57 aa 3d 4f 31 ec bd 05 23 05 bc 1d 0b 2e bd
       0.08317498 -0.11532842 -0.008126025 -0.042491067
0003f0 c6 87 07 3e d1 0c 7a 3c 62 f4 6f bd 9d 7a 31 3d
       0.13235387 0.015261845 -0.05858267 0.043329824

squential.4.bias f4 [10]
000000 10 14 c9 bb f1 a3 bc 3d f4 43 81 bd 55 22 50 bd
       -0.006136425 0.09210957 -0.06311789 -0.05081399
000010 29 83 0e bb 4d eb 3a bc 42 fc 88 3b 7c 11 da bc
       -0.0021745658 -0.011408639 0.004180462 -0.026619665
000020 f5 29 09 3d 85 39 c9 3c
       0.03348728 0.02456356
